…
==================================================

GENERAL CONFIGURATION:
------------------------------
Input Shape: (None, 500)
Output Shape: (None, 1)
Data Type: float64
Total Parameters: 1,838,473

LAYER ARCHITECTURE:
------------------------------
Model: "functional"
┏━━━━━━━━━━━━━━━━━━━━━━━━━━━━━━━┳━━━━━━━━━━━━━━━━━━━━━━━━━━━┳━━━━━━━━━━━━━━━━━┳━━━━━━━━━━━━━━━━━━━━━━━━━━━━┓
┃ Layer (type)                  ┃ Output Shape              ┃         Param # ┃ Connected to               ┃
┡━━━━━━━━━━━━━━━━━━━━━━━━━━━━━━━╇━━━━━━━━━━━━━━━━━━━━━━━━━━━╇━━━━━━━━━━━━━━━━━╇━━━━━━━━━━━━━━━━━━━━━━━━━━━━┩
│ input_layer (InputLayer)      │ (None, 500)               │               0 │ -                          │
├───────────────────────────────┼───────────────────────────┼─────────────────┼────────────────────────────┤
│ layer_normalization           │ (None, 500)               │           1,000 │ input_layer[0][0]          │
│ (LayerNormalization)          │                           │                 │                            │
├───────────────────────────────┼───────────────────────────┼─────────────────┼────────────────────────────┤
│ dense (Dense)                 │ (None, 512)               │         256,512 │ layer_normalization[0][0]  │
├───────────────────────────────┼───────────────────────────┼─────────────────┼────────────────────────────┤
│ layer_normalization_1         │ (None, 512)               │           1,024 │ dense[0][0]                │
│ (LayerNormalization)          │                           │                 │                            │
├───────────────────────────────┼───────────────────────────┼─────────────────┼────────────────────────────┤
│ dropout (Dropout)             │ (None, 512)               │               0 │ layer_normalization_1[0][… │
├───────────────────────────────┼───────────────────────────┼─────────────────┼────────────────────────────┤
│ dense_1 (Dense)               │ (None, 512)               │         262,656 │ dropout[0][0]              │
├───────────────────────────────┼───────────────────────────┼─────────────────┼────────────────────────────┤
│ layer_normalization_2         │ (None, 512)               │           1,024 │ dense_1[0][0]              │
│ (LayerNormalization)          │                           │                 │                            │
├───────────────────────────────┼───────────────────────────┼─────────────────┼────────────────────────────┤
│ dropout_1 (Dropout)           │ (None, 512)               │               0 │ layer_normalization_2[0][… │
├───────────────────────────────┼───────────────────────────┼─────────────────┼────────────────────────────┤
│ dense_2 (Dense)               │ (None, 512)               │         262,656 │ dropout_1[0][0]            │
├───────────────────────────────┼───────────────────────────┼─────────────────┼────────────────────────────┤
│ layer_normalization_3         │ (None, 512)               │           1,024 │ dense_2[0][0]              │
│ (LayerNormalization)          │                           │                 │                            │
├───────────────────────────────┼───────────────────────────┼─────────────────┼────────────────────────────┤
│ dense_3 (Dense)               │ (None, 512)               │         262,656 │ layer_normalization_3[0][… │
├───────────────────────────────┼───────────────────────────┼─────────────────┼────────────────────────────┤
│ multiply (Multiply)           │ (None, 512)               │               0 │ layer_normalization_3[0][… │
│                               │                           │                 │ dense_3[0][0]              │
├───────────────────────────────┼───────────────────────────┼─────────────────┼────────────────────────────┤
│ add (Add)                     │ (None, 512)               │               0 │ dropout[0][0],             │
│                               │                           │                 │ multiply[0][0]             │
├───────────────────────────────┼───────────────────────────┼─────────────────┼────────────────────────────┤
│ activation (Activation)       │ (None, 512)               │               0 │ add[0][0]                  │
├───────────────────────────────┼───────────────────────────┼─────────────────┼────────────────────────────┤
│ dense_4 (Dense)               │ (None, 256)               │         131,328 │ activation[0][0]           │
├───────────────────────────────┼───────────────────────────┼─────────────────┼────────────────────────────┤
│ layer_normalization_4         │ (None, 256)               │             512 │ dense_4[0][0]              │
│ (LayerNormalization)          │                           │                 │                            │
├───────────────────────────────┼───────────────────────────┼─────────────────┼────────────────────────────┤
│ dropout_2 (Dropout)           │ (None, 256)               │               0 │ layer_normalization_4[0][… │
├───────────────────────────────┼───────────────────────────┼─────────────────┼────────────────────────────┤
│ dense_5 (Dense)               │ (None, 256)               │          65,792 │ dropout_2[0][0]            │
├───────────────────────────────┼───────────────────────────┼─────────────────┼────────────────────────────┤
│ layer_normalization_5         │ (None, 256)               │             512 │ dense_5[0][0]              │
│ (LayerNormalization)          │                           │                 │                            │
├───────────────────────────────┼───────────────────────────┼─────────────────┼────────────────────────────┤
│ dense_7 (Dense)               │ (None, 256)               │         131,328 │ activation[0][0]           │
├───────────────────────────────┼───────────────────────────┼─────────────────┼────────────────────────────┤
│ dense_6 (Dense)               │ (None, 256)               │          65,792 │ layer_normalization_5[0][… │
├───────────────────────────────┼───────────────────────────┼─────────────────┼────────────────────────────┤
│ layer_normalization_6         │ (None, 256)               │             512 │ dense_7[0][0]              │
│ (LayerNormalization)          │                           │                 │                            │
├───────────────────────────────┼───────────────────────────┼─────────────────┼────────────────────────────┤
│ multiply_1 (Multiply)         │ (None, 256)               │               0 │ layer_normalization_5[0][… │
│                               │                           │                 │ dense_6[0][0]              │
├───────────────────────────────┼───────────────────────────┼─────────────────┼────────────────────────────┤
│ add_1 (Add)                   │ (None, 256)               │               0 │ layer_normalization_6[0][… │
│                               │                           │                 │ multiply_1[0][0]           │
├───────────────────────────────┼───────────────────────────┼─────────────────┼────────────────────────────┤
│ activation_1 (Activation)     │ (None, 256)               │               0 │ add_1[0][0]                │
├───────────────────────────────┼───────────────────────────┼─────────────────┼────────────────────────────┤
│ dense_8 (Dense)               │ (None, 256)               │          65,792 │ activation_1[0][0]         │
├───────────────────────────────┼───────────────────────────┼─────────────────┼────────────────────────────┤
│ layer_normalization_7         │ (None, 256)               │             512 │ dense_8[0][0]              │
│ (LayerNormalization)          │                           │                 │                            │
├───────────────────────────────┼───────────────────────────┼─────────────────┼────────────────────────────┤
│ dropout_3 (Dropout)           │ (None, 256)               │               0 │ layer_normalization_7[0][… │
├───────────────────────────────┼───────────────────────────┼─────────────────┼────────────────────────────┤
│ dense_9 (Dense)               │ (None, 256)               │          65,792 │ dropout_3[0][0]            │
├───────────────────────────────┼───────────────────────────┼─────────────────┼────────────────────────────┤
│ layer_normalization_8         │ (None, 256)               │             512 │ dense_9[0][0]              │
│ (LayerNormalization)          │                           │                 │                            │
├───────────────────────────────┼───────────────────────────┼─────────────────┼────────────────────────────┤
│ dense_10 (Dense)              │ (None, 256)               │          65,792 │ layer_normalization_8[0][… │
├───────────────────────────────┼───────────────────────────┼─────────────────┼────────────────────────────┤
│ multiply_2 (Multiply)         │ (None, 256)               │               0 │ layer_normalization_8[0][… │
│                               │                           │                 │ dense_10[0][0]             │
├───────────────────────────────┼───────────────────────────┼─────────────────┼────────────────────────────┤
│ add_2 (Add)                   │ (None, 256)               │               0 │ activation_1[0][0],        │
│                               │                           │                 │ multiply_2[0][0]           │
├───────────────────────────────┼───────────────────────────┼─────────────────┼────────────────────────────┤
│ activation_2 (Activation)     │ (None, 256)               │               0 │ add_2[0][0]                │
├───────────────────────────────┼───────────────────────────┼─────────────────┼────────────────────────────┤
│ dense_11 (Dense)              │ (None, 128)               │          32,896 │ activation_2[0][0]         │
├───────────────────────────────┼───────────────────────────┼─────────────────┼────────────────────────────┤
│ layer_normalization_9         │ (None, 128)               │             256 │ dense_11[0][0]             │
│ (LayerNormalization)          │                           │                 │                            │
├───────────────────────────────┼───────────────────────────┼─────────────────┼────────────────────────────┤
│ dropout_4 (Dropout)           │ (None, 128)               │               0 │ layer_normalization_9[0][… │
├───────────────────────────────┼───────────────────────────┼─────────────────┼────────────────────────────┤
│ dense_12 (Dense)              │ (None, 128)               │          16,512 │ dropout_4[0][0]            │
├───────────────────────────────┼───────────────────────────┼─────────────────┼────────────────────────────┤
│ layer_normalization_10        │ (None, 128)               │             256 │ dense_12[0][0]             │
│ (LayerNormalization)          │                           │                 │                            │
├───────────────────────────────┼───────────────────────────┼─────────────────┼────────────────────────────┤
│ dense_14 (Dense)              │ (None, 128)               │          32,896 │ activation_2[0][0]         │
├───────────────────────────────┼───────────────────────────┼─────────────────┼────────────────────────────┤
│ dense_13 (Dense)              │ (None, 128)               │          16,512 │ layer_normalization_10[0]… │
├───────────────────────────────┼───────────────────────────┼─────────────────┼────────────────────────────┤
│ layer_normalization_11        │ (None, 128)               │             256 │ dense_14[0][0]             │
│ (LayerNormalization)          │                           │                 │                            │
├───────────────────────────────┼───────────────────────────┼─────────────────┼────────────────────────────┤
│ multiply_3 (Multiply)         │ (None, 128)               │               0 │ layer_normalization_10[0]… │
│                               │                           │                 │ dense_13[0][0]             │
├───────────────────────────────┼───────────────────────────┼─────────────────┼────────────────────────────┤
│ add_3 (Add)                   │ (None, 128)               │               0 │ layer_normalization_11[0]… │
│                               │                           │                 │ multiply_3[0][0]           │
├───────────────────────────────┼───────────────────────────┼─────────────────┼────────────────────────────┤
│ activation_3 (Activation)     │ (None, 128)               │               0 │ add_3[0][0]                │
├───────────────────────────────┼───────────────────────────┼─────────────────┼────────────────────────────┤
│ dense_15 (Dense)              │ (None, 128)               │          16,512 │ activation_3[0][0]         │
├───────────────────────────────┼───────────────────────────┼─────────────────┼────────────────────────────┤
│ layer_normalization_12        │ (None, 128)               │             256 │ dense_15[0][0]             │
│ (LayerNormalization)          │                           │                 │                            │
├───────────────────────────────┼───────────────────────────┼─────────────────┼────────────────────────────┤
│ dropout_5 (Dropout)           │ (None, 128)               │               0 │ layer_normalization_12[0]… │
├───────────────────────────────┼───────────────────────────┼─────────────────┼────────────────────────────┤
│ dense_16 (Dense)              │ (None, 128)               │          16,512 │ dropout_5[0][0]            │
├───────────────────────────────┼───────────────────────────┼─────────────────┼────────────────────────────┤
│ layer_normalization_13        │ (None, 128)               │             256 │ dense_16[0][0]             │
│ (LayerNormalization)          │                           │                 │                            │
├───────────────────────────────┼───────────────────────────┼─────────────────┼────────────────────────────┤
│ dense_17 (Dense)              │ (None, 128)               │          16,512 │ layer_normalization_13[0]… │
├───────────────────────────────┼───────────────────────────┼─────────────────┼────────────────────────────┤
│ multiply_4 (Multiply)         │ (None, 128)               │               0 │ layer_normalization_13[0]… │
│                               │                           │                 │ dense_17[0][0]             │
├───────────────────────────────┼───────────────────────────┼─────────────────┼────────────────────────────┤
│ add_4 (Add)                   │ (None, 128)               │               0 │ activation_3[0][0],        │
│                               │                           │                 │ multiply_4[0][0]           │
├───────────────────────────────┼───────────────────────────┼─────────────────┼────────────────────────────┤
│ activation_4 (Activation)     │ (None, 128)               │               0 │ add_4[0][0]                │
├───────────────────────────────┼───────────────────────────┼─────────────────┼────────────────────────────┤
│ dense_18 (Dense)              │ (None, 64)                │           8,256 │ activation_4[0][0]         │
├───────────────────────────────┼───────────────────────────┼─────────────────┼────────────────────────────┤
│ layer_normalization_14        │ (None, 64)                │             128 │ dense_18[0][0]             │
│ (LayerNormalization)          │                           │                 │                            │
├───────────────────────────────┼───────────────────────────┼─────────────────┼────────────────────────────┤
│ dropout_6 (Dropout)           │ (None, 64)                │               0 │ layer_normalization_14[0]… │
├───────────────────────────────┼───────────────────────────┼─────────────────┼────────────────────────────┤
│ dense_19 (Dense)              │ (None, 64)                │           4,160 │ dropout_6[0][0]            │
├───────────────────────────────┼───────────────────────────┼─────────────────┼────────────────────────────┤
│ layer_normalization_15        │ (None, 64)                │             128 │ dense_19[0][0]             │
│ (LayerNormalization)          │                           │                 │                            │
├───────────────────────────────┼───────────────────────────┼─────────────────┼────────────────────────────┤
│ dense_21 (Dense)              │ (None, 64)                │           8,256 │ activation_4[0][0]         │
├───────────────────────────────┼───────────────────────────┼─────────────────┼────────────────────────────┤
│ dense_20 (Dense)              │ (None, 64)                │           4,160 │ layer_normalization_15[0]… │
├───────────────────────────────┼───────────────────────────┼─────────────────┼────────────────────────────┤
│ layer_normalization_16        │ (None, 64)                │             128 │ dense_21[0][0]             │
│ (LayerNormalization)          │                           │                 │                            │
├───────────────────────────────┼───────────────────────────┼─────────────────┼────────────────────────────┤
│ multiply_5 (Multiply)         │ (None, 64)                │               0 │ layer_normalization_15[0]… │
│                               │                           │                 │ dense_20[0][0]             │
├───────────────────────────────┼───────────────────────────┼─────────────────┼────────────────────────────┤
│ add_5 (Add)                   │ (None, 64)                │               0 │ layer_normalization_16[0]… │
│                               │                           │                 │ multiply_5[0][0]           │
├───────────────────────────────┼───────────────────────────┼─────────────────┼────────────────────────────┤
│ activation_5 (Activation)     │ (None, 64)                │               0 │ add_5[0][0]                │
├───────────────────────────────┼───────────────────────────┼─────────────────┼────────────────────────────┤
│ dense_22 (Dense)              │ (None, 64)                │           4,160 │ activation_5[0][0]         │
├───────────────────────────────┼───────────────────────────┼─────────────────┼────────────────────────────┤
│ layer_normalization_17        │ (None, 64)                │             128 │ dense_22[0][0]             │
│ (LayerNormalization)          │                           │                 │                            │
├───────────────────────────────┼───────────────────────────┼─────────────────┼────────────────────────────┤
│ dropout_7 (Dropout)           │ (None, 64)                │               0 │ layer_normalization_17[0]… │
├───────────────────────────────┼───────────────────────────┼─────────────────┼────────────────────────────┤
│ dense_23 (Dense)              │ (None, 64)                │           4,160 │ dropout_7[0][0]            │
├───────────────────────────────┼───────────────────────────┼─────────────────┼────────────────────────────┤
│ layer_normalization_18        │ (None, 64)                │             128 │ dense_23[0][0]             │
│ (LayerNormalization)          │                           │                 │                            │
├───────────────────────────────┼───────────────────────────┼─────────────────┼────────────────────────────┤
│ dense_24 (Dense)              │ (None, 64)                │           4,160 │ layer_normalization_18[0]… │
├───────────────────────────────┼───────────────────────────┼─────────────────┼────────────────────────────┤
│ multiply_6 (Multiply)         │ (None, 64)                │               0 │ layer_normalization_18[0]… │
│                               │                           │                 │ dense_24[0][0]             │
├───────────────────────────────┼───────────────────────────┼─────────────────┼────────────────────────────┤
│ add_6 (Add)                   │ (None, 64)                │               0 │ activation_5[0][0],        │
│                               │                           │                 │ multiply_6[0][0]           │
├───────────────────────────────┼───────────────────────────┼─────────────────┼────────────────────────────┤
│ activation_6 (Activation)     │ (None, 64)                │               0 │ add_6[0][0]                │
├───────────────────────────────┼───────────────────────────┼─────────────────┼────────────────────────────┤
│ dense_25 (Dense)              │ (None, 32)                │           2,080 │ activation_6[0][0]         │
├───────────────────────────────┼───────────────────────────┼─────────────────┼────────────────────────────┤
│ layer_normalization_19        │ (None, 32)                │              64 │ dense_25[0][0]             │
│ (LayerNormalization)          │                           │                 │                            │
├───────────────────────────────┼───────────────────────────┼─────────────────┼────────────────────────────┤
│ dropout_8 (Dropout)           │ (None, 32)                │               0 │ layer_normalization_19[0]… │
├───────────────────────────────┼───────────────────────────┼─────────────────┼────────────────────────────┤
│ dense_26 (Dense)              │ (None, 32)                │           1,056 │ dropout_8[0][0]            │
├───────────────────────────────┼───────────────────────────┼─────────────────┼────────────────────────────┤
│ layer_normalization_20        │ (None, 32)                │              64 │ dense_26[0][0]             │
│ (LayerNormalization)          │                           │                 │                            │
├───────────────────────────────┼───────────────────────────┼─────────────────┼────────────────────────────┤
│ dense_28 (Dense)              │ (None, 32)                │           2,080 │ activation_6[0][0]         │
├───────────────────────────────┼───────────────────────────┼─────────────────┼────────────────────────────┤
│ dense_27 (Dense)              │ (None, 32)                │           1,056 │ layer_normalization_20[0]… │
├───────────────────────────────┼───────────────────────────┼─────────────────┼────────────────────────────┤
│ layer_normalization_21        │ (None, 32)                │              64 │ dense_28[0][0]             │
│ (LayerNormalization)          │                           │                 │                            │
├───────────────────────────────┼───────────────────────────┼─────────────────┼────────────────────────────┤
│ multiply_7 (Multiply)         │ (None, 32)                │               0 │ layer_normalization_20[0]… │
│                               │                           │                 │ dense_27[0][0]             │
├───────────────────────────────┼───────────────────────────┼─────────────────┼────────────────────────────┤
│ add_7 (Add)                   │ (None, 32)                │               0 │ layer_normalization_21[0]… │
│                               │                           │                 │ multiply_7[0][0]           │
├───────────────────────────────┼───────────────────────────┼─────────────────┼────────────────────────────┤
│ activation_7 (Activation)     │ (None, 32)                │               0 │ add_7[0][0]                │
├───────────────────────────────┼───────────────────────────┼─────────────────┼────────────────────────────┤
│ dense_29 (Dense)              │ (None, 32)                │           1,056 │ activation_7[0][0]         │
├───────────────────────────────┼───────────────────────────┼─────────────────┼────────────────────────────┤
│ layer_normalization_22        │ (None, 32)                │              64 │ dense_29[0][0]             │
│ (LayerNormalization)          │                           │                 │                            │
├───────────────────────────────┼───────────────────────────┼─────────────────┼────────────────────────────┤
│ dense_30 (Dense)              │ (None, 16)                │             528 │ layer_normalization_22[0]… │
├───────────────────────────────┼───────────────────────────┼─────────────────┼────────────────────────────┤
│ layer_normalization_23        │ (None, 16)                │              32 │ dense_30[0][0]             │
│ (LayerNormalization)          │                           │                 │                            │
├───────────────────────────────┼───────────────────────────┼─────────────────┼────────────────────────────┤
│ dense_31 (Dense)              │ (None, 1)                 │              17 │ layer_normalization_23[0]… │
├───────────────────────────────┼───────────────────────────┼─────────────────┼────────────────────────────┤
│ scale_layer (ScaleLayer)      │ (None, 1)                 │               0 │ dense_31[0][0]             │
└───────────────────────────────┴───────────────────────────┴─────────────────┴────────────────────────────┘
 Total params: 1,838,473 (14.03 MB)
 Trainable params: 1,838,473 (14.03 MB)
 Non-trainable params: 0 (0.00 B)

OPTIMIZER CONFIGURATION:
------------------------------
Type: AdamW
name: adamw
learning_rate: 0.0001
weight_decay: 1e-05
clipnorm: 0.1
global_clipnorm: None
…
